cem/hyperbolic.pt (torch, 34658 bytes, 12 tensors)

net.0.weight f8 [30, 2]
00000000: 245e c855 04d1 d0bf 1092 607e adbc c03f
00000010: 62c6 45e0 ebad d93f 67d8 fa77 fbec d0bf
00000020: 9383 2aef 2f50 d6bf 6097 568a b326 97bf
00000030: 7c35 4651 b1bc e3bf a003 d382 6274 cb3f
00000040: da1f b5e7 2e36 e4bf 9a92 5c5a 3558 d63f
00000050: 7e33 0bf9 a8f3 d03f 507e f41f 048c b4bf
00000060: db53 ebf0 1343 c9bf 0434 2cd4 dfc3 c23f
00000070: 5c22 8197 f2f5 c13f c05f a1ce c194 a8bf
00000080: 2765 e5c8 9c01 df3f 639b 6a34 0645 cfbf
00000090: 61e4 e12c 0b0a e43f 88c4 1a0e 79f6 d3bf
000000a0: c117 7620 b488 d8bf 1aab 4ee0 510a a33f
000000b0: c549 10bc 9809 e43f ecd8 b719 3089 d4bf
000000c0: 4a2e 41a3 855e de3f 92c4 805a 1fea d1bf
000000d0: 6da1 2f3c 3aa1 e2bf 629a ac6e 08e0 d23f
000000e0: ac10 7402 a9cc e5bf 7399 bb04 56e8 d43f
000000f0: 1e2d 20ca 1915 e63f dec1 a566 a5c4 d7bf
00000100: c8b7 0e1f 8aa8 ec3f 84da 67f8 11c0 dcbf
00000110: d08e f73e ff75 c3bf 1215 98c9 c399 e2bf
00000120: 9622 b590 7101 d8bf fc4a 6dea 422d bd3f
00000130: 15aa c02b ce35 d5bf f55f 30e5 a9a9 c53f
00000140: 59a6 b878 ae74 dbbf bd12 975c 6335 d23f
00000150: ec60 9a53 72cc e43f c86a 1ee2 288b d2bf
00000160: b3af cc96 97fb e1bf 43d8 99dd 7381 db3f
00000170: 4df6 cd8e 8a0e e43f 422c b38d b221 d5bf
00000180: 8e2a d453 d35c b33f 746b 1cf7 7cf9 b53f
00000190: 1fa0 b738 91e1 583f ec0c 6791 c197 b4bf
000001a0: a020 2dae 1e7c c03f 6811 0b10 1d59 b7bf
000001b0: 5029 5546 b214 b63f b027 6b1f 9c91 c5bf
000001c0: c03d a2c5 cea7 bdbf 6d56 4323 e827 ae3f
000001d0: 0da6 eff8 1008 d83f e33b 62cf 07f2 cdbf
-0.26275738122191883 0.1307579867435753 0.4012403192674353 -0.26446425167831084 -0.348644240913978 -0.02260857135629324 -0.6167837703120962 0.21448928249267585
-0.6316141629731604 0.3491338140905015 0.26487182923010966 -0.08026147632744451 -0.19735955489764376 0.14660261020654286 0.14031822583844444 -0.04800992629378653
0.4844734155536394 -0.2442939525546662 0.6262260319337082 -0.31191851022146766 -0.38334372682617973 0.03718810904623222 0.6261714623563469 -0.320873284449944
0.4745191664012266 -0.2799147018259386 -0.5821810889729427 0.2949238854220423 -0.6812329337995116 0.3266806646555757 0.6900757739798882 -0.3713773252884759
0.8955736738769184 -0.44922303446166034 -0.1520384843307654 -0.581270116556569 -0.3750881112251049 0.11397188399613961 -0.3314090182563246 0.16924022379748718
-0.42899667538822467 0.284508552951859 0.6499568589088347 -0.28974363405147274 -0.5619619317344501 0.4297761596748197 0.6267750538970148 -0.33018173063164025
0.07563515469170509 0.08583813698753123 0.001518623178407459 -0.08044061469904634 0.12878783707333685 -0.09120351449661757 0.0862533017836189 -0.1685061601077087
-0.11584179234545555 0.058898214630670555 0.3754923277871008 -0.2339486849418498

net.0.bias f8 [30]
00000000: b59e 4bf0 eebf eebf 66ed d5f7 cffd dbbf
00000010: 489a e5d1 a9ce e53f 00a0 9d03 c7db e4bf
00000020: 9407 1a03 54b2 e7bf ae8f 246e d565 e3bf
00000030: c535 ab49 a3ea d83f b05d 4bb5 c659 e4bf
00000040: 57e7 0e3c 7a88 bdbf b9b6 f7a0 e485 e73f
00000050: 78e9 6e0b e67d d83f 5a94 2da0 59ff acbf
00000060: 7d17 811b 8119 d5bf a38f cc3c 5fa8 e7bf
00000070: 7d36 d1ec 41fe d0bf aa48 96f0 beac d2bf
00000080: 626f 7dd3 c797 ca3f 74a8 20ae 3100 c7bf
00000090: ba56 8f50 80db cf3f e341 689e 594c eebf
000000a0: 2ca6 d299 18ef dc3f a899 fe48 a856 b6bf
000000b0: 4e8a f94e b6b6 dc3f 9962 bb9d c264 d73f
000000c0: 35cf 07c5 f556 b43f 50f9 f116 a2df d43f
000000d0: f2ee ecc5 138f e4bf 4b05 106a 42cc d8bf
000000e0: 6fce 177b 9bc5 d5bf c6ca 7940 9358 b6bf
-0.9609293645161957 -0.4373664779920631 0.6814774608181517 -0.6518282957667907 -0.7405185757236148 -0.6061808730341818 0.3893211574003 -0.6359590092569558
-0.11536373106255603 0.735094370260149 0.38268424145248714 -0.0566356666593399 -0.32968166051829667 -0.739303225277116 -0.2655186474483811 -0.29179357046917664
0.20775697542819233 -0.17969342233965657 0.2488861459120722 -0.9468200773135859 0.45209326764833935 -0.08725978643506116 0.44865186416987946 0.3655249157286931
0.07945190487208438 0.32614948502295693 -0.6424654832585175 -0.3874670062796965 -0.34018599530029453 -0.08728905033221243

net.2.weight f8 [30, 30]
00000000: 8f4a 7fe2 0e4c bb3f 1953 19a3 4e4a bfbf
00000010: 9bc2 e355 c6c9 b63f 57d6 e9bf 34f1 d03f
00000020: d35d 04bc 57a4 84bf 00e9 1964 d1c3 64bf
00000030: fc21 d4a6 087c bc3f e700 64f7 625e c1bf
00000040: 7ea1 92e5 e90f c4bf 0703 d386 a1a6 a93f
00000050: cb99 9e3d bdb4 a8bf bc84 9e10 db7f a43f
00000060: 1210 2c6a ab0a 9dbf 3989 529c bede c73f
00000070: 3b14 0e7b 72f8 cb3f 4764 22da f8e1 c03f
00000080: a546 148e 01b6 d73f 78a5 90e6 d1f4 c53f
00000090: 4be8 4ba6 4d10 c03f 9c26 339f de4a 833f
000000a0: 19a0 517b 5a35 b1bf 482c 637c 5d7a debf
000000b0: 8400 2064 e08b c63f 5e84 0b76 8897 acbf
000000c0: 5e7c d9f5 9a97 89bf dc39 b1c6 8159 a0bf
000000d0: c833 7613 c2f7 abbf c870 fc53 281e ae3f
000000e0: 5782 e50c be35 d7bf c4ca e071 6fe3 ccbf
000000f0: 9db4 1b50 4aa3 debf 5cfd a524 5d89 b13f
00000100: 1cf3 522a 8812 c33f d32b 7d1a 9a65 90bf
00000110: 8cc1 0023 33ed a7bf 2dde 4f88 9613 c5bf
00000120: 4ba1 f8cb c5ff b83f b8e1 49fd 16c4 b43f
00000130: e4a7 8c19 f69e bf3f 3dcf 55a1 2bd0 b13f
00000140: 0dd6 e443 5df6 a13f 346f cf4a 1085 babf
00000150: a685 d741 94c4 d4bf 8dfd 5e38 8de1 c33f
00000160: aedd 88f1 8ecc c33f a904 6bbf efab cdbf
00000170: c47a 088f 3347 da3f 60ff 7f0f 5281 b33f
00000180: 0f3c 3478 3368 bcbf 6502 dfb7 01e1 debf
00000190: 4c2b 275c 41b7 bd3f a92b dfdd 6b23 bdbf
000001a0: 4ea3 81a5 4e5b 98bf 8d8b bf0b 219d ce3f
000001b0: 156c 280d 9342 b33f 295f e279 8849 6ebf
000001c0: 88f0 a985 ff24 b6bf 803e 19a2 0889 6e3f
000001d0: 9530 9816 e6db e6bf aa20 fad4 6e4a ccbf
000001e0: fa08 1ec6 34a0 e13f d5a2 889f ab97 c6bf
000001f0: 8818 3f54 9f9b b83f 16d1 1b4d c365 c83f
00000200: 3820 0924 d231 bb3f 14e7 7892 9844 b53f
00000210: ed16 e5ca b775 98bf 8c2d 4711 32f9 bf3f
00000220: 1a30 00be efa9 ddbf a280 89f7 f8a0 c03f
00000230: 5ec5 4428 a7aa a2bf 419d 47b9 8f3a d8bf
00000240: a458 a5f2 3079 693f f8a9 b90f 153f c13f
00000250: cc8d 22b2 472c c9bf 18e0 3cfc 68af c13f
00000260: b257 52f4 b742 debf 5312 5fa5 7b4c c7bf
00000270: 735c 9f53 9f1d bc3f 88e0 47ef 8bd5 dc3f
00000280: 65b1 b9db 852e c23f 7fdd 7330 a7e5 ddbf
00000290: 96c5 b1e9 3539 cf3f b820 b1d2 8b24 c13f
000002a0: e287 61bc ad38 90bf 1ac2 1b0b ac82 a13f
000002b0: b8be 5fd1 15fc ab3f bc83 6eac 1060 bd3f
000002c0: 4128 dfec 148e c83f c528 c3d1 50c6 e13f
000002d0: 5648 d70e ad97 83bf 3e56 022c c4be c53f
000002e0: 917c da6b f7c1 c1bf 1c27 92d7 db2e c4bf
000002f0: 7e03 0a1a cd99 c2bf 34ac 8a9b 1c27 a7bf
00000300: 4692 63ea a585 67bf 4cb8 b386 bd66 ad3f
00000310: 89aa 7bef e691 c3bf 8aa5 6b55 6f1f be3f
00000320: 58c2 1887 73c4 b23f 02d9 5fd0 b5c9 b93f
00000330: cfd4 6728 69d0 bd3f 08df f97a 7645 c13f
00000340: 4031 1dfa dcbd 803f 6d9a a067 407f aebf
00000350: 41ea 497c b3f3 c0bf c04f aacf be87 6ebf
00000360: c851 0223 6a45 9c3f d11a f6f9 1edd 913f
00000370: 8b3d c343 00b4 c0bf aae3 3284 1180 b9bf
00000380: 6353 d212 3c7e c7bf ed5b cb35 777a b2bf
00000390: bd79 5567 4d2f 8dbf 935f 8bfc 3838 c1bf
000003a0: 6e48 d770 b4e0 c63f 1edf 41de a55a c23f
000003b0: d8e9 2fa5 45eb b93f d9c7 80c3 c7a2 c5bf
000003c0: d847 80d4 df25 e1bf 5c49 5850 c700 a63f
000003d0: 5ee1 e29e 2ec8 d33f 151a 0f60 fc81 b3bf
000003e0: e93f c29b 1c5a c1bf 00dd d6a8 bf08 c73f
000003f0: 8f3f d193 9a7a d23f 68ba 44ca 471f c13f
00000400: 48e3 f5a3 6f8c 75bf e74e 6cac b97d a6bf
00000410: 0b66 8dac c402 a6bf ec6b f444 aa03 ad3f
00000420: 4291 3c95 692a a33f 8272 abf9 e5f6 c0bf
00000430: 0ff9 b575 d97e a23f b037 38ea a518 83bf
00000440: 0866 ea8d 96e9 bcbf 781d 0b01 f194 c0bf
00000450: f568 d1a9 bf8e c4bf c861 14fd b86b e9bf
00000460: 7b11 aac0 9fd9 c43f 3f96 c36a 11b0 bcbf
00000470: 85c7 a397 7ce6 c53f 65d9 631a aaa6 aebf
00000480: 3ac5 f91e dec4 b8bf bcf1 58f1 f517 b4bf
00000490: f0f9 555e df01 99bf 3895 1e2d 2824 97bf
000004a0: 49ad ba27 ca08 e4bf 38f0 ee7d 1ca5 d5bf
000004b0: 8885 9656 db8a a83f 4831 cb93 aa82 b13f
000004c0: d02c 97b8 cebe a5bf acfa be5c 7043 a63f
000004d0: 5b41 0fa1 9000 b1bf 1051 b51b 42a9 c6bf
000004e0: c524 7785 968e c0bf 1233 72e8 a973 aebf
000004f0: e1c9 7b67 7771 c4bf 0487 d232 79e9 b13f
00000500: 400e 6c19 480f 7abf 7ce6 895d 8a39 a9bf
00000510: 3063 fc2c 2d2e 9b3f 8d74 8b1a 52a6 bcbf
00000520: e2ee 44ac 3b86 c13f 0c15 6c96 1417 ad3f
00000530: fc7f b467 88e7 bdbf cf54 3812 bee9 c5bf
00000540: 9686 2489 7db5 c13f 2d41 42fa db49 c3bf
00000550: 58c1 9e08 e017 a83f bbd4 ea62 8407 c5bf
00000560: d773 ba23 3665 c0bf 0e8c 8d4c ec14 b2bf
00000570: aab7 284d b99f c5bf ca7f dd03 f714 b2bf
00000580: 80e5 f201 2c1b 89bf ae01 ec66 2be5 afbf
00000590: 9872 0ea4 1f23 a7bf ba13 c899 6d90 b03f
000005a0: 005c d4f1 14f4 993f c061 3e84 7c1d b63f
000005b0: e329 dc40 5a32 b13f a44d 56bd 553a abbf
000005c0: ffbe 0a47 6ddf aabf e996 8a9a 9bbb c3bf
000005d0: 6db8 2ccd 7dd9 a7bf f0d5 4f85 523e b53f
000005e0: 7d98 1557 6b9b d2bf d067 9d4e 53b4 cc3f
000005f0: 4111 5c3a 395f 9bbf 4f47 e24e e35a ba3f
00000600: b764 1fef afda b3bf 55cd 7f30 b64b bf3f
00000610: 8e85 0b3e b391 d3bf d6f8 92f9 183e c03f
00000620: fec8 bccb 397e 85bf 8054 484e 211c a4bf
00000630: e143 80df c3bd bb3f 971e dfff 6447 fdbf
00000640: c6f2 4daf 140e a13f 0f77 b7ed 7fa9 b6bf
00000650: 2e5f fb33 74a8 c23f 9ce2 fdfd dea2 a2bf
00000660: 0098 74d6 f9d6 a93f e794 c8d2 93a5 b83f
00000670: e2ab 24c9 e41c b03f f4a3 0d09 d841 c43f
00000680: afe0 c3cf 9502 febf 92db ba3f b03e eb3f
00000690: f54f ef9f 23cc f4bf f60c b8cd b092 c03f
000006a0: 5be0 e76f 0da5 acbf db49 c3bb 7b30 d73f
000006b0: b281 96e7 6820 c73f b91c da24 1757 bcbf
000006c0: d59e 2092 ee61 ad3f 5ad7 5120 31ef c43f
000006d0: 193a 0990 19b4 c23f d92a 2890 c885 b83f
000006e0: bab6 c629 e78f b3bf f570 ff52 3f2d a7bf
000006f0: 92c5 5ce1 81fb c3bf 69b7 1d2d bf2b e13f
00000700: 9e60 14db dff5 c53f c19c a7c4 947d cfbf
00000710: 7d7e 91b8 41e5 bf3f 717a b9d5 ca77 c2bf
00000720: 429e cec4 5fe6 aabf f5c3 6ebd e5cb e63f
00000730: 1f77 efdf 2a1b c2bf a16c f77a 7fef 923f
00000740: 5a30 6af4 88a9 bcbf 373a 4c07 a4b4 d33f
00000750: c759 5720 13b9 b33f 37c3 3880 1ebc a8bf
00000760: 648d 06f6 c38c c13f 023a b7a7 4763 c33f
00000770: 9573 7d32 c876 e83f 0812 3ee1 62c6 bb3f
00000780: 0055 452e 1e28 a93f 1275 3b61 322d c23f
00000790: 2456 5b52 5fbf a0bf 88f5 afd0 f3e2 a83f
000007a0: a26f 2b99 ab8b bebf 40b4 ac14 ad14 683f
000007b0: 9918 d524 040d bbbf 94df 66e4 5c64 a13f
000007c0: 802f 6695 b566 79bf fcf5 0982 6243 acbf
000007d0: ec49 5dae 95e6 c03f 37ce 75e8 6836 c5bf
000007e0: 2c60 61df 989c a9bf bf06 0ece 5b01 c7bf
000007f0: 20c8 f689 4e63 c5bf 5058 d6ae 290d a0bf
0.10662930516927303 -0.12222758752734499 0.08901633831897941 0.26472204915567005 -0.010079083848309722 -0.002534779517017971 0.11126760552372866 -0.1356929500543693
-0.15673564633949505 0.05009941836170211 -0.04825393082801418 0.04003796174880267 -0.02836101375125117 0.18648512490205763 0.21851950653595673 0.13189612055865238
0.3704837691776482 0.1715338111692224 0.12549753780314385 0.00942014621104486 -0.0672203589507493 -0.4762185778351449 0.17614369286457443 -0.055843605432308804
-0.01249619543813035 -0.031932883743696044 -0.05462461936540525 0.05882383370610139 -0.3626551748220996 -0.22569077549413497 -0.4787164480502016 0.06850225586639652
0.1490030485782875 -0.016012580744511794 -0.046731565497228095 -0.1646602788530215 0.09765278081670663 0.08111709293178293 0.12351930736318156 0.06958267868850228
0.035082735574558745 -0.10359289003775701 -0.3244982378947391 0.15532078983777034 0.15468012612994414 -0.2318095860155485 0.4105957886512608 0.07619202497880684
-0.11096498188656788 -0.48248331981816356 0.11607750415639123 -0.11382173697272314 -0.023785809375485294 0.23917019914287288 0.07523459502446912 -0.003697172694113866
-0.08650204671170247 0.003727452146257637 -0.7143431130694063 -0.22102151297827294 0.5508064145545 -0.17650361337407242 0.09612460905836617 0.19060555710860488
0.10622895602966842 0.08307794166549015 -0.023886558302613038 0.12489617273165815 -0.463497100398628 0.1299124916722621 -0.03645822874603753 -0.37857430547451904
0.003109546281090907 0.13473761813959562 -0.1966638202476204 0.13816559139536433 -0.4728221784547443 -0.18202157568716135 0.10982700149121331 0.4505338513113277
0.14204476574685568 -0.46714191180895875 0.2439334288679162 0.1339278010148115 -0.015841211912977722 0.034200073581704696 0.054657632644987186 0.11474708757169955
0.19183599058152548 0.5554584595604629 -0.009566642775926375 0.16988422535784936 -0.13873188749582657 -0.15768001581118873 -0.1453186394828911 -0.04522027395918152
-0.0028713455713947093 0.05742447156249905 -0.15289007848271677 0.11766715846501632 0.07331010864505438 0.10073410355821369 0.11646134602036116 0.13493233685198214
0.00817463529860929 -0.0595646025179136 -0.13243716782365492 -0.0037268378048995465 0.02760854567221019 0.01744507218020425 -0.13049319561694647 -0.0996104190588897
-0.1835398761656065 -0.0721811777433314 -0.014250378337860132 -0.13452827769537787 0.17873244771778068 0.14339135506065132 0.10124621661081024 -0.16903016134307228
-0.5358733320629154 0.04297469001552898 0.30909314647899133 -0.07620217652502277 -0.135562492422195 0.1799544882212345 0.2887331431893409 0.13376710297002892
-0.005260883422459291 -0.0439279578187362 -0.042989870131986484 0.056668587605791604 0.03743295618758903 -0.13253473940757848 0.03612403451823997 -0.009324356279673512
-0.11293927159058381 -0.1295453314871613 -0.1606063441457263 -0.7943997328721304 0.16289135844648314 -0.11206158501189466 0.17109639553342162 -0.059865298959197934
-0.09675396209947432 -0.07849061147948694 -0.02442120564728073 -0.022598865274308738 -0.626072957607371 -0.33820259378603934 0.047934393234082384 0.06840005977864394
-0.042471370728515034 0.04348326809075806 -0.0664148705684559 -0.17704035141890317 -0.12935143963685483 -0.05947619402386385 -0.15971272042186427 0.06996877184658606
-0.006362229955587717 -0.04926712409810549 0.026543336744995816 -0.11191285274567715 0.13690896903596356 0.05681671463211488 -0.11681416065084699 -0.17119575395250883
0.13835114666385512 -0.15069150657337485 0.0470571527979497 -0.16429190473505692 -0.12808872932956092 -0.07063176030128224 -0.1689368845704256 -0.07063239902845378
-0.012258857545350166 -0.062295299829205106 -0.04518984677927057 0.06470379833633802 0.02534516073236759 0.08638742664914556 0.06717456897255362 -0.05317943512195747
-0.05248586170398361 -0.15416283651318644 -0.046581202789057176 0.08298221354183233 -0.2907360411103424 0.2242530950414321 -0.02673043650340046 0.10294933963657836
-0.07755565250353667 0.12224901851714283 -0.3057678323658245 0.1268950670837003 -0.010494662790368366 -0.03927711563680081 0.10836433607643371 -1.8299303050024827
0.03331055297801337 -0.08852386048917203 0.14576580560855618 -0.03639885759816261 0.050468261173861606 0.0962765111549576 0.06294088278507062 0.15825939600043137
-1.8756311527086316 0.8514024014210568 -1.2998386619046844 0.12947664303656098 -0.055946750555393186 0.36233418785300636 0.1806765681076406 -0.1107038941355424
0.057387786233730566 0.1635495574770925 0.14612121136674786 0.09579137343841228 -0.07641453523566613 -0.04526708496243429 -0.15611289505026754 0.5365901833699641
0.17156599232908304 -0.24601993181497586 0.12459192997038744 -0.1442807715966015 -0.052538864874176486 0.7123898219925865 -0.14145408567758808 0.018491737251548405
-0.11196189849050722 0.30790043556854435 0.07704276599483882 -0.04831023516852045 0.13710832131355766 0.15146728219265532 0.7644997583516778 0.10849588393291054
0.04913420023755499 0.14200429675739962 -0.032710055163686996 0.04860650942280659 -0.11931869973653744 0.0029395466312025775 -0.10566736125210453 0.03396883285625943
-0.006201466856861404 -0.055201605199709264 0.13203688634764832 -0.16572295523256894 -0.050022866504776026 -0.1797289615752131 -0.1670931028034497 -0.03135042437786295

net.2.bias f8 [30]
00000000: 3b49 851f 7353 c3bf c8d0 6073 742f b1bf
00000010: 11b2 bf88 29db 9fbf 0320 bbc9 3612 b33f
00000020: 2050 b10c aa56 d03f d80c 3242 64b2 a7bf
00000030: 31df 4f1a b3ca cc3f 8422 0112 6223 bfbf
00000040: 6897 3dc2 6d51 963f b8ec d67d 1c27 c9bf
00000050: 1475 574a cf21 c63f 7727 d33a b56c c6bf
00000060: 396e 797d 7daf b2bf b83d 3131 82c7 c1bf
00000070: e6e7 573c fd8f c2bf 6e69 f314 152d a83f
00000080: 0abb 9b42 18aa b9bf 5610 14e8 2f64 be3f
00000090: de89 2b02 0796 aa3f 958e b147 3a0a ba3f
000000a0: 9667 e012 7fc9 c7bf 902e b093 7d0d a03f
000000b0: df90 1f7c 38e4 a23f 3097 7a9a 6c32 c93f
000000c0: 6459 e6fc 45ea c9bf 2e44 ad92 7434 c1bf
000000d0: 5708 a78b b80d b7bf a507 d648 f6ea ae3f
000000e0: a8d7 1588 7b1c bcbf 3864 7e4c 93b7 c2bf
-0.15098418273061917 -0.0671303540883087 -0.031109475108609234 0.07449667382309148 0.25528956641687905 -0.04628289516497269 0.2249359014965591 -0.12163365306435919
0.02179500101137624 -0.19650608200558906 0.17290679101908124 -0.17519250271135053 -0.07299026788080533 -0.1389010181614887 -0.1450192017217084 0.047218951041673715
-0.10025169016055827 0.1187162343595117 0.051925868048573895 0.10171856165248479 -0.18583668157299077 0.031352924612375266 0.03689743533303313 0.1968513254443507
-0.20246195648787613 -0.13441331064180545 -0.09005311402782588 0.06038636817085256 -0.10980960914989046 -0.14622727618260156

net.4.weight f8 [30, 30]
00000000: 5c35 6c70 8ba6 b63f 7b9a 4e89 5f22 aa3f
00000010: 3321 cbf2 c183 d0bf 3434 cd28 fd95 a43f
00000020: 9454 c3e2 6c14 a1bf 4d9d ef51 fb66 c3bf
00000030: 3660 0e33 5a9e c03f b88d 7fe5 82a6 903f
00000040: 0a02 2c46 05ff c0bf 5a52 d1e2 f6fd 7ebf
00000050: 6829 5fc9 0dd2 cc3f d617 e096 c08f bd3f
00000060: fd12 61da a1d1 c73f a098 0794 8d82 d8bf
00000070: 5d76 a281 f46c c13f ba3b cfc9 e241 c1bf
00000080: dbce 6a98 7a4e 743f 8408 d4d6 c273 d7bf
00000090: 8e62 fc17 420a c2bf e194 a96e e051 b53f
000000a0: c2e4 15ad 6e9e c43f a4c1 084c d793 ad3f
000000b0: b6fc 8dfa c3d3 c9bf d124 139d 6ae6 ccbf
000000c0: 8e19 aed3 756a a83f 782c d15c 5bd5 983f
000000d0: ddf5 ccf2 58a4 b93f 1727 9482 fb11 cbbf
000000e0: d7d4 7329 537e afbf edb5 9b14 a00e a7bf
000000f0: 0446 4017 dad3 ccbf 30aa 5d59 f05f b53f
00000100: ccd5 fd4f 5396 d03f 4340 e06f 1e40 70bf
00000110: f467 9be7 08b8 c53f 5e79 17f0 cde9 c03f
00000120: 2147 25f9 1f7f bd3f 6fdc 69f4 b367 a6bf
00000130: cc34 ac85 de9a bebf e6cc acff 0b70 b93f
00000140: 7073 3b3c 4fda d0bf e8e9 a036 ab34 83bf
00000150: c3b3 4472 d090 b3bf d7dc e5e9 cf4b 65bf
00000160: acd6 d7d1 6b00 c1bf 563b 6699 c158 acbf
00000170: 9e25 bca2 3afb d4bf a641 b20d 4533 d73f
00000180: b890 04e3 2cc7 a6bf aba9 6831 2484 c8bf
00000190: c6f3 3592 cd95 c7bf 0f17 88c3 0145 b9bf
000001a0: cd11 ce90 5b44 d23f b4cc 9939 00e8 c63f
000001b0: bc20 acb3 c6a3 c43f 9e1a 6268 175e b7bf
000001c0: aa72 6ff1 f643 c7bf d58f d12b e3f2 cb3f
000001d0: cbaa c8a7 84cf 413f ca01 7437 c0bd c0bf
000001e0: 27ea 9303 0089 b7bf ba7e c053 f1cc cabf
000001f0: ea18 c051 2b08 8e3f 5cd3 84a0 8002 b33f
00000200: 5aed 0911 5a88 ca3f c43c b5b4 ad30 c73f
00000210: 65fa eaf5 6b95 8a3f b2ef c319 b6b0 a8bf
00000220: 2a3e 6664 9ada afbf c0fe c43b 3c89 933f
00000230: 818b f5f2 8cd8 aabf 2f75 4333 483c 98bf
00000240: 9f9b 512e a335 c53f e507 f27a 366c c3bf
00000250: a815 f9ad a372 c13f 468d 7eff 6897 b0bf
00000260: 8299 42df af61 a23f 4acd a096 21f6 d5bf
00000270: a1b6 d239 4b6a 50bf aad4 b307 35f7 ccbf
00000280: 6bf9 ce82 51d1 a93f 8c18 e401 da33 b13f
00000290: 56a0 1e7d 367f da3f 019b 430e f00c d43f
000002a0: 0959 1c33 5647 c63f 27a4 90b8 056a b3bf
000002b0: 229a b481 6a99 c2bf fe40 0cc6 7909 cb3f
000002c0: 0061 b338 c638 bb3f a19f b426 59ef c6bf
000002d0: d3b2 02e1 83b8 ce3f 4123 74b4 c5fc cc3f
000002e0: 761c 4e5f a8b2 b1bf 5452 e81a 2bcf c1bf
000002f0: 884f b5a0 affe 9c3f 9054 c1f8 f67f 883f
00000300: 1bc9 e742 a0a9 72bf 7df1 0292 7a39 cbbf
00000310: 9ddb 47cf c508 b6bf 8faa 89d6 8041 c2bf
00000320: eaf9 e299 3e63 cb3f 9b3d 949e 05f1 b5bf
00000330: 88cf 5a65 8a4a cf3f 48ca a4d9 d5aa ac3f
00000340: 7b10 8225 610e b23f 1c6a e0ac 7562 c43f
00000350: ad4d 4ac4 7be1 d63f b8ae e280 78ec cebf
00000360: fd20 2dd3 f765 c0bf 5ed4 de19 f7c7 ba3f
00000370: 70c4 1911 aab0 b3bf e380 92e5 9f61 c5bf
00000380: 9062 67a3 1442 d5bf 0f8e 3e39 74ba d1bf
00000390: 0cb8 a9fa d69c bcbf 782a da4e e26e c2bf
000003a0: b3f0 f156 1cf8 c0bf 07ec b560 24f3 a73f
000003b0: 7abe 3943 8d04 bdbf df97 f3e6 2b9c fcbe
000003c0: b6a6 9dd2 925b 893f 5cac 4c0d fd6d cb3f
000003d0: 85d0 da3e 7961 a6bf f741 f85e d40b 9bbf
000003e0: 886d cabb 8ed0 b03f c865 7996 5db8 c63f
000003f0: d592 e8df a58e c8bf 1a6b 85a9 b09f d5bf
00000400: 3a37 1835 760f c33f 2736 3a96 e30a a9bf
00000410: 217f fad2 ec73 c03f 90c7 39cc a33a 90bf
00000420: 437d 3548 0b13 b8bf 8721 ae12 12c8 aa3f
00000430: 353e 046f 3dae cc3f 3c3d b6b4 87b4 b53f
00000440: 4305 1de1 6361 b43f 1d71 a0fe 08b6 dcbf
00000450: 12cd 3ed0 6d38 b7bf 6d12 2fe8 1109 c53f
00000460: 8231 2285 7ac9 a23f 6cb6 a77f 14d5 c43f
00000470: ab33 fc3a 66ae d5bf 8945 bc64 5897 c8bf
00000480: 06aa 958b a07c bdbf 80c7 b978 d822 c63f
00000490: 49d4 d29d efd7 bc3f a669 67c8 1a88 c23f
000004a0: 26b1 2be8 d45b b6bf 7853 e558 f64a b93f
000004b0: bb87 37d3 1181 c6bf e5fd 52d9 974c 9cbf
000004c0: 0680 7182 0e41 b7bf d4d0 d8ab 8b86 c13f
000004d0: 036d 4dae 3103 be3f 4a31 5f8e 74d9 c2bf
000004e0: bf0c 572d e769 b5bf dba1 f42f 9615 9fbf
000004f0: e088 6663 3666 8cbf 2091 ba57 68c0 7a3f
00000500: 32a8 ef2b 6149 bfbf 701e e296 07e3 c1bf
00000510: e461 a81f 52bc b63f f045 2701 d9a8 c2bf
00000520: ee64 3378 ac7b c33f 9122 4cf9 53e4 c4bf
00000530: d0d8 5d1c 7e57 96bf 71c6 38c6 5f35 ae3f
00000540: b0e0 89bf 2269 99bf a21e b9f7 ff0a 9f3f
00000550: 0c3c 0c7c c407 c13f f200 ddee d398 c63f
00000560: 934b 2935 61d1 b2bf 19c1 42bf d991 c0bf
00000570: b4c7 37ed 546f b73f 8ceb 70df 84e7 be3f
00000580: b138 81a6 ec67 9ebf 0cd7 85c3 c1c6 963f
00000590: 2647 ddc0 4a21 af3f dd48 1a1e 90fb be3f
000005a0: 12b1 4d3f a894 bbbf a667 1335 8b1b c8bf
000005b0: 8657 5e13 23ad bc3f a247 7464 b118 bcbf
000005c0: b958 a2c4 1b7a c1bf 9526 b34c 94a0 bcbf
000005d0: c79d 2f4f c6d9 bf3f dede ae0d 7274 ce3f
000005e0: 0d17 268a 08dd c6bf 037f 74b2 b860 663f
000005f0: 3229 2c86 f85b c23f 49c2 4018 96e2 683f
00000600: cf63 a74f 0859 acbf b61d eefb 727b a73f
00000610: e4bd d36e a610 c1bf 419d 5012 8405 a33f
00000620: 32d2 66ca a516 bd3f 4df7 43b3 2b36 d33f
00000630: 68d4 1c24 61b1 b83f 933f cc50 fc3d a03f
00000640: 62b8 b401 3f7c b6bf c076 f63e 244b 98bf
00000650: 1993 1671 3fb2 d43f 243e 779d 4dc6 d23f
00000660: f918 b849 9ed6 b63f 90bd d18e dd74 c3bf
00000670: edf8 5a8e 945d bd3f 3678 2c18 667e 78bf
00000680: e963 7021 0256 c2bf d07e 3ea7 504f ac3f
00000690: 1ab3 3cff a581 d23f 634e c052 1ec7 d63f
000006a0: 3837 0ce3 61e6 d0bf 1e81 78dd 3ac2 bd3f
000006b0: bbd6 d79d 68dd bdbf a0e0 fc15 5528 c03f
000006c0: 2878 18ba 8fb1 b43f af5e 1806 e5b4 d3bf
000006d0: d622 38b8 01eb c43f 1841 e423 3599 a13f
000006e0: 8f1f d0fe d0f5 be3f d9c6 e37c f86a c8bf
000006f0: 74f0 450b 08e2 c63f 8602 7c7a c8ec c03f
00000700: f838 538a f701 95bf e491 47f3 11ee b2bf
00000710: ead0 0ad0 02f7 c93f 1cdf 3a10 4b7f debf
00000720: e506 3cf4 fdf1 b7bf 99aa f88f eae3 cc3f
00000730: f921 390d 1657 b93f 9eeb 93cf b30f c1bf
00000740: 40ac 812b 764e d2bf 6550 41c4 00c5 ccbf
00000750: b0fe a7bd 56ec ccbf 2a41 16a7 cd58 b6bf
00000760: 0f9c fd3c 5a82 943f f532 af80 dd77 c6bf
00000770: 74c3 1e95 c8eb adbf 683e f557 0bfa c3bf
00000780: e062 ffa0 ba6e a73f a036 3c53 aeb2 c8bf
00000790: 5574 5f89 3426 d13f 28f5 b9c9 eb72 bbbf
000007a0: 9ba8 b45c 9186 ca3f 4955 f6fc 141f b0bf
000007b0: 9d2e c83a 2922 c1bf aa58 f457 dfe1 d83f
000007c0: 5831 bd96 670f ad3f 0a31 2d17 21d9 a83f
000007d0: ecd1 d5eb 7c9a b03f 67d5 39df 73e2 c0bf
000007e0: 2756 d1f9 eed9 863f 1d7a 877e c2f0 d6bf
000007f0: 26c4 cd77 ba27 c23f 0da3 495d 1be7 c23f
0.08847877020544587 0.05104349661933313 -0.25804184637356115 0.04020682452264915 -0.03335895794013158 -0.15158025265484767 0.1298325299546847 0.016260190255605628
-0.1327826111446629 -0.007566418074095605 0.2251603348980311 0.11547473605614242 0.1860849682144802 -0.38296832519552915 0.13613754586997376 -0.13482317785243741
0.004957655800058548 -0.3664404962474992 -0.14093805476365556 0.08328058912009652 0.1610849709648275 0.05776856234695352 -0.20177507146943235 -0.22578175229708689
0.0476872273348362 0.024251391925912164 0.1001639931464164 -0.21148628116525778 -0.0615106571293979 -0.04503345729413497 -0.2252152074366195 0.08349516088279851
0.2591751366774957 -0.003967398542968739 0.16967879589975576 0.13213514540889099 0.11522102196365981 -0.043759940705904714 -0.1195506168698614 0.0993659495550677
-0.2633245552258847 -0.009377801518088938 -0.07642843999629094 -0.002599626618742339 -0.13282535310979904 -0.055364656425004696 -0.32783380405506957 0.3625042566063946
-0.044488337242257925 -0.19153263485470737 -0.1842591251296694 -0.09870921157570599 0.2854222215758256 0.17895510494745326 0.16124805234017525 -0.09127947138231682
-0.1817616156466973 0.21834983481960415 0.0005435369235489927 -0.13079073627160503 -0.09193420493458203 -0.209379354376315 0.014664019043277372 0.07425693434636343
0.20728612739535884 0.18117305110579285 0.012980311815565313 -0.048223200459659124 -0.06221468425348704 0.019078198574105754 -0.05243339982805307 -0.02366745770347228
0.1656993843236849 -0.15173989299006432 0.13631101603293172 -0.06481033551840651 0.035901542666851874 -0.3431476565339905 -0.0010019049289370712 -0.22629416347596037
0.0504250976732575 0.06719744249503118 0.4140144559737612 0.31328965561844774 0.17405202384606636 -0.07583652263623773 -0.14530688603663672 0.2112266747503852
0.10633505710882574 -0.17917932882232626 0.2400059555706294 0.22646399794782648 -0.06913235022340011 -0.13913477720110967 0.028315300163128693 0.011962823358923097
-0.004556299229522299 -0.212691613478352 -0.08607136068881834 -0.14262400126911642 0.21396620286937146 -0.08570895310935216 0.24446229886018167 0.055990870302043805
0.07053191343044489 0.15925475064507644 0.3575124184510184 -0.24159151356922393 -0.12811181842176458 0.10461372739412542 -0.07691443364616801 -0.16704176625808662
-0.33215824086577417 -0.277005248930636 -0.11176818484975132 -0.14400891161161034 -0.13257173772206485 0.04677690201329914 -0.11335070506333436 -2.7284665006364783e-05
0.012381693890080352 0.21429408215894596 -0.04371241466779544 -0.026412313744062357 0.06568233570799553 0.17750139090894224 -0.1918532698920418 -0.33787170939256017
0.14890935509213837 -0.04891120156126432 0.12853775312122998 -0.01584869321818122 -0.09404058945573461 0.05230766752271437 0.22406738205653345 0.08478592073355612
0.07961105581218413 -0.4486105429257508 -0.09070478757967163 0.16433929288008944 0.036693409682899705 0.16275268777046692 -0.3387694908167826 -0.19211869162294828
-0.11518290908649229 0.17293840308007802 0.11266992190469795 0.14477858338689237 -0.08733874004582684 0.09880008383090721 -0.17581389249158783 -0.027635929717460334
-0.09083643612530076 0.1369185055824632 0.11723623757773187 -0.1472612090277699 -0.0836472020810559 -0.0303557841081402 -0.013866829784835166 0.006531150425562765
-0.12221343348179017 -0.13974089495990283 0.08881104729551442 -0.14577782207793133 0.15221172208001782 -0.16321801827168206 -0.021818132859572625 0.05900096220683516
-0.024815123501384206 0.030315398688144264 0.1330495458318811 0.17653893626448497 -0.0735073809421876 -0.12945100630668874 0.09154253760769288 0.12072020011048162
-0.02969331518425439 0.02224257236362974 0.06080087284375528 0.12102604613236019 -0.10773707910056299 -0.18834056941596805 0.11201686117996532 -0.10975178434844549
-0.13653895474698688 -0.1118252455954923 0.12441672738315566 0.23792863529319325 -0.17862040277048444 0.0027316672673264332 0.14343172599212434 0.003037732270989833
-0.05536676380479088 0.04586371732062437 -0.13332062159996305 0.037151458011346346 0.11362682525106818 0.30018131739040116 0.09645659572272935 0.031722912657755085
-0.0878333453335656 -0.023724142401639225 0.32337938350456025 0.2933534658195376 0.08921231555732224 -0.15200395082090923 0.11470917201492954 -0.005979918295251399
-0.1432497657085883 0.05529262582353811 0.2891631119298822 0.35590322571918004 -0.26406142399433774 0.1162449637126923 -0.11665967801658443 0.12623084615348024
0.08083437245701985 -0.30791593165620673 0.16342183585245235 0.03437200606470209 0.12093836041469629 -0.1907644853413817 0.17877293158005936 0.13222604733165982
-0.020515315835660325 -0.07394516171877502 0.20285067709267618 -0.47651936135251716 -0.0935362550044619 0.2257054522500155 0.09898507902938282 -0.13329169879565667
-0.2860389160984518 -0.22476205427904286 -0.22596248875196556 -0.08729253129263684 0.0200285052991625 -0.17553299697319572 -0.058439510539193856 -0.15606824679206288
0.045766670372989315 -0.19295291008204618 0.26795686164206717 -0.10722230601273408 0.2072316839851894 -0.0629742734511939 -0.13385501260960533 0.38878615941338046
0.05675815310550786 0.04853156478802319 0.06485729940124657 -0.13191078567221412 0.011157862662154973 -0.3584448085438526 0.14183741426271118 0.14767782263813736

net.4.bias f8 [30]
00000000: 70a0 9e20 cddf b73f 3f83 979d d434 ae3f
00000010: cd2e 2c5b 1fbe c0bf 41d1 b94d a559 cc3f
00000020: 68bd 2ea4 68aa d33f 5dea 8ae2 ffc0 c1bf
00000030: fdae ae0a a56a bebf 1a5e 96a9 3e14 be3f
00000040: 450b efc8 18dc 983f e03f e9a5 de9d c6bf
00000050: 33c9 3dc9 a3dd c2bf 11ef d37d abec c5bf
00000060: c641 85c3 4ce8 b5bf 3f0c 373f aabe bd3f
00000070: c2dc 79ed 1b8b bdbf c8d5 63ce 08d3 9ebf
00000080: 00fb 9c1d 771e b2bf 3a4f 77ac 3580 c6bf
00000090: 40ea 20da 316e ce3f 5fb0 1e36 50ff 9b3f
000000a0: 4c52 d3fd f47a bebf 048e a424 33a7 bebf
000000b0: 4fc7 9a2c 7648 78bf 00cc ab2b 9b2f c2bf
000000c0: c02a 70d0 a6d3 bfbf 0ac5 3a16 379d c03f
000000d0: 91a0 98ac 603b b8bf 8cb8 fb79 0483 c23f
000000e0: 61ef 76ac 487b a23f eea8 b488 90ab c4bf
0.0932586865079672 0.05899681495407671 -0.1308020777872713 0.22148577017981988 0.30727592500166745 -0.13870237886097217 -0.11881476889419314 0.11749641075436337
0.024277102722190653 -0.17669280148629607 -0.1473889095901285 -0.17128509181917953 -0.08557586453867491 0.11619056742988308 -0.11540388629679213 -0.030101907345814444
-0.07077736351946484 -0.17578764840311029 0.23773787642297073 0.02734113054582143 -0.1190636748972988 -0.11973876614188589 -0.0059284797841188805 -0.14207782394768742
-0.12432329739400938 0.12979782662800005 -0.09465603078627029 0.1446233363744266 0.03609683137207643 -0.1614857356556238

net.6.weight f8 [30, 30]
00000000: a64c e7ec c510 babf ceaa 59d5 0850 c2bf
00000010: f0ac 6320 218f a1bf dc31 a8af c51a babf
00000020: f781 4526 84f9 c53f 4ae0 069a 5ead c33f
00000030: 1267 11f6 2a7f c6bf 3848 ad4a 88f3 ac3f
00000040: 2d8d de7d 103d aabf 9fb1 71d9 18aa bebf
00000050: ab0c b415 e798 c3bf 6b0b e5a4 2275 bdbf
00000060: f690 00aa da74 c13f 328b 7cc2 dc6b c1bf
00000070: 1cdf 411a bfa3 c23f a357 860b d98f b7bf
00000080: f060 68d5 5019 ba3f 40cd 81ee 10b5 b33f
00000090: d09f 2f54 c29f c1bf a35f 1c5c d536 c5bf
000000a0: cc57 2084 b1b4 be3f 58af 03b9 c1e5 98bf
000000b0: 1c75 7bc2 92f1 c6bf 98b4 fc24 da4f c63f
000000c0: d6c9 7a01 fc72 aebf 8a5e ac51 a0ed a63f
000000d0: 0099 f7b6 3c79 413f 3dab 45c0 7755 b9bf
000000e0: 6b6f db07 2461 a9bf 4c37 517e 9de7 bb3f
000000f0: 91dd b8f0 2907 c5bf 6338 b662 7569 ce3f
00000100: 70cc 017c 7d2f c5bf 644c d141 1b26 b53f
00000110: 0948 a44f ad6d cf3f cd04 fd2f 7c88 b2bf
00000120: 667f 61a9 5e30 c6bf 9a3a 2ad3 a362 b8bf
00000130: 4288 b33f 8323 ac3f 6688 48e5 43c5 d53f
00000140: 9955 0a34 7012 913f 1ec9 3652 4679 c2bf
00000150: 2dcc d793 1070 d53f 73ce 7ddc 1ffe ba3f
00000160: 4460 60e2 a607 c4bf 22d3 5d46 7950 a0bf
00000170: c7df 8978 242c bb3f d9c9 7f98 717f 9a3f
00000180: 8f00 11ba 15b9 c4bf 194a d648 5eba cb3f
00000190: 9a50 2f45 02ac cfbf 2ca6 2499 8c3d a03f
000001a0: d5f9 b22c f1ed c0bf 0282 ab45 8ae0 b6bf
000001b0: 4088 86cd f554 883f 8ee3 1864 bb5a 9e3f
000001c0: 96c6 d087 109e b03f e730 c176 4ae7 8a3f
000001d0: 8bea e0ad f8a3 d53f 9888 b74c de25 963f
000001e0: d205 4911 2836 cbbf b2b1 8364 7d9e bfbf
000001f0: 4b19 bc93 94ba cabf 7db4 5153 6d4c b3bf
00000200: 3918 f250 43f1 bcbf 2064 306c b0c9 9fbf
00000210: b601 15bd 9be8 85bf bc57 8463 b516 bb3f
00000220: d488 c924 397c 66bf aa08 ad57 cd50 b73f
00000230: 1396 af79 2764 c7bf 1428 e05f b7a9 c2bf
00000240: 4a79 b07e 3b00 c1bf 08d3 61cc 13af bcbf
00000250: acef 49d8 8aaf b23f 6c06 aa94 7705 bf3f
00000260: 2075 c6ac 866b c63f 91bf 8c66 0708 bb3f
00000270: 8734 f247 d9c4 933f 1036 ea3a 5293 ba3f
00000280: 80fd 6fd5 c148 acbf b417 1fde f88a a5bf
00000290: 6640 dfb2 b284 8cbf 2053 4aae 8538 78bf
000002a0: c81c 7a35 f873 b13f eea8 ce11 50fd b53f
000002b0: bd95 af91 aa0f babf 10cf 3638 930b bfbf
000002c0: dc98 8cd5 8e44 a93f ec2a e48a 69cb babf
000002d0: a62f c5dd 1800 cd3f 9df2 eaab 4acc 92bf
000002e0: 0762 0156 7b83 c3bf aa82 0d64 906b d23f
000002f0: d7d5 211b e0e0 c13f 2045 cade 10b8 c6bf
00000300: ce03 c716 4284 a2bf ba52 e314 6fe4 ce3f
00000310: 5219 6803 6476 a5bf 3f60 5432 b2ac c2bf
00000320: 85fe 800f be4a acbf 4ee7 67b0 b98a c33f
00000330: 3d74 7c1b 3bd6 b0bf 1092 100b c369 c2bf
00000340: 0cbd d3db 3af7 b73f 7fb9 490e db95 e1bf
00000350: 90d1 8300 6f24 c63f 7dad 1361 32e4 bfbf
00000360: 53fb 747b b039 d73f 97c6 51b5 6436 b7bf
00000370: a313 989e b717 01c0 68a5 d255 8e1e 9f3f
00000380: 762a 2d69 d88d d13f 74ed 375a 499f b8bf
00000390: 28f2 95ef a631 ad3f 7e41 2c5f 6c14 d03f
000003a0: 74bf f7bd 68bd cc3f cd39 d57e a86d acbf
000003b0: b735 3942 a73e bdbf c425 3d9d 1868 afbf
000003c0: 7b79 92a3 b88d 8f3f 9095 52b5 3f60 c2bf
000003d0: 9e57 df4a 1424 d13f 99e4 d208 ab16 cf3f
000003e0: a3c4 0688 da15 d33f 0a2d 4fd7 3127 c13f
000003f0: 0995 bc5a e485 9e3f 9a34 1c3d 5ffe d13f
00000400: f830 fbae 4bd9 c5bf 00f5 119e c9ca 9ebf
00000410: 0fa3 2816 ef09 94bf 2bc6 2ddb bd94 b4bf
00000420: 527e a7ba 51a4 babf acd7 4f45 914e c9bf
00000430: 2362 92d6 e130 b1bf 5df6 06b7 0ecf 94bf
00000440: 06b2 abd9 93ee c4bf e6d7 c69d 58fd a9bf
00000450: c81d 2c0d e4f3 ca3f 32db 79e9 ee44 bb3f
00000460: 0bf7 6cdb 60a0 b43f d747 bd15 201e b5bf
00000470: 69fb 0393 607f d13f 7f8e b4f0 d20d acbf
00000480: 50fc 49a6 2c24 abbf 24d1 dd6f 7a76 d23f
00000490: a4d1 7a98 53d8 ad3f f84a ffa5 6545 b23f
000004a0: 6a68 2b56 64c3 d1bf 18ec 344a 4492 b03f
000004b0: b13a aafa d6cf d23f 5221 bbac e421 b8bf
000004c0: 5a9c 4e8c 1fa0 d33f 1ad9 d411 77fb ce3f
000004d0: eacf 2f62 5a7f bd3f e4c3 c4b0 77dd a6bf
000004e0: b5a3 008d 916d ad3f 5fa5 3540 38ed a23f
000004f0: 080f 34e0 bb2d b03f 79f7 ae81 6a7b 83bf
00000500: 3f00 876b 210d c4bf 18c4 5534 4633 a13f
00000510: 2006 ee42 5700 9e3f 5c29 8b27 f8fe d1bf
00000520: abbe ef16 4672 c5bf 6e6b e2d5 3e94 d03f
00000530: 338f 84f8 d161 c6bf a3fd b219 36ef aa3f
00000540: cffb 4f26 4070 583f 0529 2c74 939c b03f
00000550: 5b9e 4cba cc01 c53f 507d 074a 583b c2bf
00000560: ea76 2388 1860 c33f 58f5 005d f309 c63f
00000570: a89b 24a5 6ee9 b93f 86a1 7bd8 dc37 af3f
00000580: c85b b1c6 8ec1 c33f 01ba 4eeb b249 a0bf
00000590: c0f2 3478 43f6 ccbf 8016 5506 fd9f a2bf
000005a0: f48f 32e7 1521 d23f 4048 3f9e c5b6 b2bf
000005b0: 1aa1 f939 a603 e13f 75b0 38e0 7b6d c13f
000005c0: 3d3f 8bc3 a028 69bf 6804 41b6 8d97 b83f
000005d0: d8ed 113f f9b2 ad3f 37eb 2c01 0486 cc3f
000005e0: cfc3 8c87 17ac b0bf 22a3 84e3 cd80 c8bf
000005f0: 7b63 be10 3a84 c73f 1892 dd8c ba65 ae3f
00000600: cbc4 5e16 cda2 d6bf f323 8ee9 e123 cfbf
00000610: 78ba 3a0f f99c 953f 67d8 e500 3a56 d13f
00000620: dd95 e8c9 1164 b03f 9852 4223 5093 b23f
00000630: 4145 f859 3b04 d63f 0fc9 ce0a fe06 babf
00000640: e686 2996 6045 c03f e4ee a3e9 8193 b33f
00000650: 4b30 7f8c b3d9 a13f 689f 8f9b 1aef b83f
00000660: 6e66 8476 7138 b9bf 3157 18cf 12bb d33f
00000670: 733f 2f85 a778 e0bf 4745 1d57 6c8b d83f
00000680: bef0 2edb f6ed a3bf 9653 4128 e5f4 c0bf
00000690: a000 5501 3c3e d13f efa9 9ecc ca63 793f
000006a0: 119f 8213 e3f6 c13f b10e ba0f 3db2 a23f
000006b0: b78b 8b73 32e7 c7bf a93b f2d9 32b7 c5bf
000006c0: c9e9 280d d973 cf3f 6aef 338f 4281 b93f
000006d0: 8824 8541 2d40 9cbf 5e9e 2ee6 0fec d9bf
000006e0: 0033 6cbe b8ec b13f 1f2d 1d7c 275d b4bf
000006f0: 6bc8 134d d66f b83f 83da c98e a54f c2bf
00000700: 0c67 7fb6 d518 b23f f59f 4665 0950 b43f
00000710: 18a7 d6f7 d82a bf3f 81bd caf6 682b ba3f
00000720: fde9 211c d029 aabf 8a1c 585c 1baa a3bf
00000730: cb52 4bf8 2e48 d03f 08b4 5cd2 102c 9bbf
00000740: 0afd 0e2a 1b02 cb3f 9a61 2535 1deb b03f
00000750: 98e8 6443 fa77 c1bf 9b2c 564c fd51 c93f
00000760: 1ba3 c947 4696 c93f 620c 748a 1eef b7bf
00000770: 2dd4 33a8 0fb5 bbbf a067 c979 825d a03f
00000780: 7088 d436 0631 c23f f723 1d00 fa14 b73f
00000790: 4dea 578d 70f2 c43f 073e 242f 8be0 b63f
000007a0: da85 f29a ab83 d23f 80f6 590e 6a14 c6bf
000007b0: a727 4177 1a9e b5bf 031d 0ad3 c163 b23f
000007c0: a15e 70a2 954d ab3f daac d202 4ad2 c7bf
000007d0: 3b04 3bd9 89b9 d4bf d6c8 c95d 5272 c03f
000007e0: 5aa2 bd01 db1b 913f fc63 05af d682 cebf
000007f0: 9cfc aada 32cd b4bf c777 175e 7205 b6bf
-0.10181843789841824 -0.1430674592732743 -0.03429511566522503 -0.10197101152898064 0.17167713040090835 0.15372831841318862 -0.175755853796368 0.05654550468047187
-0.05124713455668437 -0.11978297527975322 -0.15310371932728137 -0.11506859327077527 0.13637860585107092 -0.13610419746790964 0.14562214643569227 -0.09203869372717448
0.10194878778600347 0.0769816000263761 -0.13768796072622402 -0.165735883689874 0.11994466281643595 -0.024313952367193664 -0.17924723144725696 0.17431189352047194
-0.05947101133405723 0.04478169438351383 0.0005332514246532416 -0.09896038478988785 -0.04956925006783205 0.10900291761319386 -0.1642811227227239 0.23759333915626532
-0.16551178507834008 0.08261270863413156 0.24553457630878509 -0.07239509746161162 -0.17335112829732252 -0.09525512605089617 0.05495844032863363 0.3401651133627922
0.01667189900998309 -0.14432600988727357 0.33496488988675105 0.10544013150302493 -0.15648351720369835 -0.03186396583524799 0.10614231055103494 0.025876784260569472
-0.1618983419921318 0.2166250091218707 -0.24743679407277314 0.03171958321975085 -0.13226141626905866 -0.08936371041227889 0.011880798658982283 0.029642990097474668
0.06491187396820872 0.01313646483335913 0.3381330202134129 0.02162883132212609 -0.2125902256394015 -0.1235121126553114 -0.20881898130046248 -0.07538493427428423
-0.11305638052189772 -0.031042820552190986 -0.010697571475817163 0.10581525497067806 -0.0027447811210531223 0.09107669249081832 -0.18274396363919773 -0.14580433064867349
-0.13281959234240964 -0.11204646816061026 0.07299106388558013 0.12117717151161295 0.17515643535890835 0.10559126142174892 0.019305605903856573 0.10381044329025024
-0.05524259310186164 -0.04207589827960537 -0.013924976428740087 -0.005913278761586566 0.06817580514517652 0.08589649615047154 -0.1018015485456862 -0.12127037165083387
0.049351180618303764 -0.10466632500553502 0.2265654642927732 -0.018357435935046785 -0.15245000552637597 0.28781518717554866 0.1396751530152602 -0.17749224546836562
-0.03616529968304115 0.24134624977036429 -0.04191887418351094 -0.14589526612758338 -0.05525773944145577 0.1526710616452029 -0.06576890393303443 -0.14385259666700323
0.09361617915032044 -0.5495429305135956 0.17298686528341678 -0.12457575674095796 0.3628960805544256 -0.09067372729057364 -2.1365806951675537 0.030389999378404836
0.2742825533975187 -0.09618051960562984 0.057019440408997035 0.2512465409681893 0.22453030849237232 -0.055524125559361794 -0.114237264316407 -0.061341065591999505
0.015407030574632987 -0.14356228212015454 0.26782710372696694 0.24287927561616554 0.29820884021598654 0.13400862706325994 0.029807632482648425 0.2811506363658026
-0.17069383663181958 -0.030070448181949594 -0.019569144942724267 -0.0803946170906548 -0.10406981284131092 -0.1977101887165963 -0.06715213287896708 -0.020321111603826093
-0.16353080872012543 -0.05076100278840538 0.21056795733623646 0.10652058792207411 0.0805721793849125 -0.08249092608210105 0.2733994899462489 -0.05479296863839255
-0.053010363863898236 0.28848133968792156 0.05829106556248867 0.07137141516367851 -0.2775507775783185 0.06473185359656985 0.29393553236961184 -0.09426717011513588
0.30664814664709683 0.24204910631824178 0.11522450348985527 -0.04465841324634548 0.057476566755503646 0.036966092908935926 0.0631978437777968 -0.00951274116766475
-0.15665071249350324 0.03359431637625948 0.02929817529684986 -0.2811870943229644 -0.16754985923716012 0.25904818427232257 -0.17486023554476446 0.05260628761015631
0.0014916063748839808 0.06488916002505014 0.16411742302556118 -0.14243606199941405 0.15137011191739386 0.17217866936872883 0.10121814281283881 0.060973073412074405
0.15434441282078937 -0.03181227800756759 -0.22626536721681667 -0.03637686445521826 0.2832693822658705 -0.0731013785691923 0.5316954738928275 0.1361536831694853
-0.003071130744821375 0.09606252383766078 0.05800608534715551 0.22283983285327633 -0.06512591418574164 -0.19143079385073586 0.18372274224818938 0.059369878478524096
-0.35368659195507907 -0.2432825460821558 0.021106616549042972 0.2708878525512603 0.06402693919570575 0.07256031857316214 0.34400829111207903 -0.1016691948305246
0.12711722690715205 0.07646953538999984 0.0348640545849724 0.0973984365260755 -0.09851750510679277 0.30829305862549733 -0.5147283173809981 0.38350971705684284
-0.038924898391515125 -0.13247360673508685 0.26942348604280575 0.006198684868574208 0.14034689381264134 0.03651610199906708 -0.18674307481623284 -0.16965327875047123
0.24572289602822497 0.09962860103763452 -0.027588564991024828 -0.40503308752747624 0.07001833580961758 -0.0795464208614942 0.09545649892587142 -0.14305562469572317
0.07069144921788623 0.0793462631469309 0.12174755144829097 0.10222488427347366 -0.05110025733388921 -0.03840718748329504 0.25440572974666215 -0.02653528484295367
0.21100177339210574 0.06608755633840815 -0.13647392550212056 0.1978146193253892 0.19989851479774576 -0.09349242096145496 -0.1082315240526703 0.031963422171158884
0.14212110211616702 0.09016382696894697 0.16364867116483808 0.0893637647716262 0.2892865193517459 -0.17249799443009195 -0.08444371615874378 0.07183467295009298
0.05332629783532395 -0.1861050142082153 -0.3238243695632865 0.12848882274153678 0.01670782278179881 -0.23836787744474452 -0.08125608290264313 -0.08602061078224131

net.6.bias f8 [30]
00000000: 94ef 0935 4536 a43f 5faa a516 ec9d c13f
00000010: a3cb dfe3 b886 c0bf 56aa bd77 0b68 a13f
00000020: 0072 1df3 5db3 c83f 6e31 64f7 e2bf bd3f
00000030: da15 38eb a26a d63f 39a3 59c3 dfff c13f
00000040: 17d8 024b 6ba7 a53f d791 2576 0b30 c2bf
00000050: 0ad4 a452 3a4e bf3f ad3d 600d 9f6a c7bf
00000060: ba30 e340 de0b a8bf 4fb4 6ecf 6f27 b2bf
00000070: 24bb 5126 6cb0 8abf 89af c753 a11d cabf
00000080: 6a01 243f a68d a7bf 6e3f 13a2 9c2d a53f
00000090: 8482 543d 02e6 d23f 0c74 245b 9da1 b13f
000000a0: 5112 2155 8b72 ab3f 23aa 2b21 8766 c43f
000000b0: f1d7 4fbf 0ca5 c43f ad90 4312 a8c6 bd3f
000000c0: 2f53 1e88 52e1 bdbf c97a 283a e3af c23f
000000d0: b89d ce0d 7f16 ce3f 26e3 d8e6 4154 c0bf
000000e0: e88d aee0 997f c93f e857 3942 125d babf
0.03947654983946261 0.13763190370385112 -0.12911139609022113 0.03399692379646939 0.19297384615755675 0.1162092069609508 0.35025856943715683 0.14062115706044567
0.04229293146765672 -0.14209121006855582 0.1222874118582952 -0.18294132378694652 -0.04696554700930862 -0.0709142571856358 -0.013031811637316766 -0.20402924147435567
-0.0460025741649613 0.04136361578423374 0.2952886198927802 0.0688722941890349 0.053608278409715944 0.15937890166908728 0.16128691998864 0.11631250806709899
-0.11671939681248199 0.1459926637625897 0.23506153272795216 -0.12757133266293258 0.1992065760688171 -0.10298265568539444
